project_137/cifar_net.pth (torch, 251604 bytes, 10 tensors)

conv1.weight f4 [6, 3, 5, 5]
000000 97 6e fa bc 87 c5 98 3d 9a 7b 9b bd 53 4d b5 3d
       -0.030570311 0.0745955 -0.075919345 0.08852639
000010 cc 28 95 3d 91 7d ca bc e4 92 c8 3d c6 d2 88 3d
       0.07283172 -0.024718078 0.09793642 0.06680827
000020 c0 57 8e 3d 78 9b 94 3d b0 43 6d 3d f3 78 0d 3a
       0.06950331 0.07256216 0.05792588 0.0005396746
000030 f4 bb ab 3b ba 26 c7 3d 42 bf e2 3a 1a 0f 50 3c
       0.0052409116 0.097241834 0.0017299431 0.012698913
000040 f7 54 c7 3d 8a 9a 8f 3d 00 c1 fc bc d3 d5 23 3d
       0.09733003 0.07011898 -0.030853748 0.03999884
000050 c3 e8 05 bd c2 48 16 bd a9 08 0c 3d 94 b8 7f 3d
       -0.032692682 -0.03669048 0.034187946 0.062431887
000060 fe 9e 28 3d 6e 20 2b bd 56 e3 c8 3d 2e c9 15 3d
       0.04116725 -0.041778974 0.09808986 0.036568813
000070 a3 cf d2 3d e6 f0 e5 3b ad f9 cf 3d fb 1c 80 3d
       0.1029351 0.0070172427 0.10155044 0.062555276
000080 9f 2d 58 bd 6c db 8b bc 43 81 89 3d a6 9d 42 3d
       -0.052777883 -0.017072402 0.06714108 0.047513627
000090 0c f5 68 bc 2b b3 fe bb 1a 51 ac bd d0 74 47 bd
       -0.01421858 -0.0077728233 -0.084139064 -0.048695385
0000a0 72 64 9d bd 12 7b cf 3b 35 c4 88 3d fa 92 cb 3d
       -0.07685174 0.00633181 0.066780485 0.09940143
0000b0 65 78 7d 3b bd d0 5c 3d f3 4c dd 3d c6 02 c7 3b
       0.0038676497 0.053910006 0.108056925 0.0060733287
0000c0 42 de f7 bb 8d 87 e9 bc 85 12 ba bd c7 17 cb 3d
       -0.007564337 -0.028507018 -0.090855636 0.099166445
0000d0 3a 3f 7c 3d 2e 4b bf 3d 3e 80 a5 bd 34 1d ce 3d
       0.061583735 0.09340511 -0.08081101 0.10064164
0000e0 75 07 d8 3c dd b1 92 bc 5f 60 07 bd f5 a4 e0 bd
       0.026370743 -0.017907077 -0.03305089 -0.10968963
0000f0 62 7a f5 bc 52 9e c6 3d 65 b9 4a bd 61 94 a5 bd
       -0.029965583 0.09698166 -0.049493212 -0.08084942
000100 fc 4f c3 3d ee 98 bf 3d 59 bf 42 bd 8d 4b e4 ba
       0.0953674 0.09355341 -0.047545765 -0.0017417535
000110 14 8d 51 bc 5f 65 8f bc 0e 54 ea 3d c1 e9 4d bd
       -0.012789983 -0.017504392 0.114418134 -0.050271753
000120 8c 80 98 bd e7 c5 60 3c 0a 66 13 3d d0 e5 a8 3d
       -0.07446393 0.013719059 0.035985984 0.08246958
000130 ef 99 08 3c 83 3e d9 bd d7 86 1f bd 76 d2 fd 3b
       0.008337482 -0.10607626 -0.038946953 0.007746036
000140 b0 b1 ec 3c 4c 71 99 3d 65 9d 36 3d 64 7d a3 3b
       0.028893322 0.07492313 0.044583697 0.004989313
000150 13 90 fa bb 64 87 24 3d 7e ea ef 3c 6a 3e d0 bd
       -0.0076465695 0.04016818 0.02928662 -0.101681545
000160 09 d5 be bd 65 29 b4 bc fe 51 d9 bd f5 36 22 3d
       -0.09317977 -0.021992395 -0.10611342 0.039603192
000170 b7 ec 1f 3c ed 23 86 3d bb 0d d3 bd 2b ef e8 3d
       0.009761027 0.06549821 -0.10305353 0.11373743
000180 4f 29 89 3d 26 1a 45 3d 63 bf 2b 3d 8a fc 87 bd
       0.06697332 0.04812064 0.041930567 -0.06639965
000190 b9 51 16 bc 1c 69 ba 3d a4 c7 cd 3d f1 79 80 bc
       -0.009174758 0.09102079 0.10047844 -0.015683146
0001a0 54 03 4a bd 27 02 cc bd db 84 89 3d 2f a4 a4 bc
       -0.04931958 -0.09961348 0.06714793 -0.02009782
0001b0 d1 bf 04 3c 76 cf 2d 3c f6 cb dc 3d dc 5e e0 bd
       0.008102373 0.010608545 0.1078109 -0.10955593
0001c0 e3 ad a3 bd 1d a5 23 bc 0c 99 df bb 3e 94 63 3d
       -0.07992151 -0.009988097 -0.0068236645 0.055561297
0001d0 db ec c3 bd de 8b a1 3d a4 4c 8a 3d ae 16 e9 bc
       -0.09566661 0.07888006 0.06752899 -0.028453197
0001e0 d8 e5 c7 3c 92 73 c3 3c 6a 5e e7 bd 7d c0 20 3d
       0.02440159 0.02385882 -0.11297305 0.03924607
0001f0 aa fe fb bc e1 84 81 3b 00 be ca 3c 6e 28 90 bd
       -0.030761082 0.003952608 0.024748802 -0.07038961
000200 e2 5c e7 bd 41 48 b9 bd 82 39 eb 3d c8 0c b6 3c
       -0.11297013 -0.090469845 0.11485578 0.022222891
000210 a8 62 9f 3d 82 bc db bc 8b 68 7a bd e4 bd c7 3d
       0.07782489 -0.026823286 -0.061134856 0.09753016
000220 f1 1a cf 3d fb 18 95 3d 93 0a 62 3d 6b 70 ed 3c
       0.101125605 0.07280155 0.055185866 0.02898427
000230 79 e1 d5 3b 0b f4 70 3c 88 78 35 bd e9 eb cd 3d
       0.0065271226 0.014706622 -0.0443044 0.10054762
000240 29 89 92 3d 35 3b 8c bd f2 59 a1 3a 48 a8 a0 bd
       0.071550675 -0.0684723 0.0012310131 -0.07844597
000250 40 33 d8 3d b1 ed 81 3d 1c bb 85 3d 59 ff 1a bd
       0.1055665 0.06344164 0.06529829 -0.037841175
000260 15 ce e2 bd 55 f2 a8 bd 74 90 a0 3b fe 7e 3c 3d
       -0.11074463 -0.08249346 0.0049000327 0.046019547
000270 2a 5a 4e 3c b2 58 90 bc e8 d5 aa bc 0e de 6d 3c
       0.012594739 -0.017620418 -0.020853952 0.014518274
000280 fb d3 a3 bd 9a 5d d5 bd e3 c9 c4 bd 85 d9 10 3d
       -0.079994164 -0.10418244 -0.09608819 0.035363693
000290 07 ec ac 3d 05 48 c7 bd 07 01 cc 3b 4a ad b5 bc
       0.08443456 -0.097305335 0.0062257084 -0.022177357
0002a0 b3 c6 6e bd d6 c1 46 3d 18 b9 d8 3d 9e c1 b3 bc
       -0.058294963 0.0485247 0.10582179 -0.02194291
0002b0 fa 57 0f 3d 8a 19 cf bd b9 53 a5 3d 68 ab 22 bc
       0.03499601 -0.10112293 0.080726095 -0.009928562
0002c0 b6 52 54 3d 06 ab 1b 3c 23 83 de bd 7e af 00 3c
       0.05183669 0.009501224 -0.10864856 0.007854341
0002d0 6a e1 56 bd 7f 8e b7 bd 80 65 74 3d 00 8d af 3d
       -0.052461065 -0.08962726 0.05966711 0.085718155
0002e0 86 d1 0a 3d 53 f2 58 bd ec 13 00 3d 72 05 80 bd
       0.033891223 -0.052965473 0.031269 -0.062510386
0002f0 eb 1e 79 bd fa 6d 14 bd 9a 6f fa 3c 7b 73 da 3d
       -0.0608205 -0.036237694 0.030570794 0.106665574
000300 89 c5 18 3d 31 24 14 bd 96 16 30 3d 06 49 e9 bc
       0.03729776 -0.036167327 0.04299029 -0.028477203
000310 d8 29 06 bd fc ce af 3d 17 58 d8 3d 50 08 20 bb
       -0.03275475 0.08584401 0.10563677 -0.0024419017
000320 83 4b c4 3d 1d 17 6d bd 8b 8f dc bd a9 6d dc bd
       0.09584715 -0.05788337 -0.10769566 -0.107631035
000330 0b aa 7a 3d 21 2b 9a 3d 13 e2 e1 3d 5e 45 85 3d
       0.06119732 0.075277574 0.11029448 0.06507371
000340 a1 bb 73 3c ab e6 f3 3c 22 20 9c bd 9d df b1 3b
       0.014876277 0.029773077 -0.07623316 0.005428268
000350 98 69 61 bd cd 67 e3 bd 19 f9 a9 bc 05 2a 3d bd
       -0.055032343 -0.11103783 -0.020748662 -0.04618265
000360 45 bf 7b 3d 8a ae b4 bd e2 e9 df bd 4e 23 84 3d
       0.061461706 -0.08822353 -0.109332815 0.06452046
000370 8d 3c e0 3b 2b 87 e2 bd 06 28 c0 bd 59 19 6e bc
       0.0068431557 -0.110609375 -0.09382634 -0.014532411
000380 a2 f9 bb bd 22 a3 79 3d 5f 98 8b bd ea ce 85 3d
       -0.09178473 0.06094659 -0.06816172 0.06533606
000390 99 e5 39 3c 4f 16 bf bd dc 43 e6 bd 8f a9 40 bd
       0.011346244 -0.09330427 -0.11243412 -0.047036704
0003a0 ba 36 e7 bd 75 f5 dc 3d 0f a0 fe 3c 2c 73 7d 3d
       -0.11289735 0.10789005 0.031082181 0.061877415
0003b0 c9 59 91 bd 6e 6a 86 3d f1 18 91 3d 19 16 af 3c
       -0.07097203 0.065632686 0.07084835 0.021372842
0003c0 ed 6c 67 3d 2c dc 11 3d 7f db 86 bd 16 a7 c7 3b
       0.056500364 0.035610363 -0.06584834 0.0060929162
0003d0 75 d2 e1 bc 79 a9 9b bd 69 c4 71 bc 6c b2 c0 bc
       -0.027566174 -0.07600684 -0.0147563005 -0.023522578
0003e0 22 04 ed bc 08 ac 12 bd 46 9a e1 bd 8d c9 c1 bd
       -0.028932635 -0.035808593 -0.110157534 -0.09462271
0003f0 67 81 46 bd 11 26 df bd d8 80 1d bd 8d a4 6d bd
       -0.04846325 -0.108959325 -0.038452953 -0.058018256

conv1.bias f4 [6]
000000 c4 d9 a8 bd 61 33 f1 bb 59 ca 90 bb 2a 94 60 3d
       -0.082446605 -0.007360861 -0.004418653 0.0548288
000010 6b 19 c2 bb 8b 20 88 bc
       -0.00592344 -0.01661708

conv2.weight f4 [16, 6, 5, 5]
000000 94 5f 61 3d 98 aa e5 3c cf 15 e5 bc c9 b7 a1 bc
       0.05502279 0.028035447 -0.0279645 -0.019740956
000010 90 bc 55 3d ad be 25 bd 9f 74 56 3c 31 08 ce 3c
       0.05218178 -0.040465046 0.013089328 0.02515039
000020 5a 94 1d bd 77 8b 98 bd 29 6b 87 3c 0c d9 a5 3d
       -0.038471557 -0.07448476 0.01653059 0.08098039
000030 c4 14 93 bd 57 e8 7e bd d2 c1 a2 bc 71 0d 97 3c
       -0.07181695 -0.062233295 -0.019867811 0.018439027
000040 b9 e1 83 3d a8 6d 74 3d ef 1c 61 bd c6 2f a5 bd
       0.064395376 0.05967489 -0.054959234 -0.08065753
000050 5e f6 86 bd e4 7c 82 3d d9 39 a8 bc 48 86 84 3d
       -0.065899596 0.06371477 -0.020535396 0.064709246
000060 c0 9a 0b bd a8 68 70 3d dd fc 64 bb fe 65 62 3d
       -0.034083128 0.058693558 -0.0034940757 0.05527305
000070 24 f6 dd 3c b5 40 00 bd d5 73 f9 3c 62 cc 5a bd
       0.027094908 -0.03131171 0.03045074 -0.05341757
000080 46 0c 40 bd 51 22 63 3c e2 c9 4e bb ba 28 6d bc
       -0.046886705 0.013863162 -0.0031553437 -0.014475042
000090 d5 35 85 bd 19 6f 0a bd 83 0c 91 3c 60 6f 99 bd
       -0.06504408 -0.033797357 0.017706161 -0.07491946
0000a0 fa 75 8a bd 0f 99 1d bb 5e 40 fa 3b 06 bd 6c 3d
       -0.067607835 -0.002404753 0.0076370677 0.057797454
0000b0 e6 9f 81 3d 45 e3 96 bc 50 ef 73 bd 3f 10 a0 3d
       0.06329326 -0.018418917 -0.059554398 0.07815599
0000c0 70 3e a5 bd dd c1 8a bd 14 4b 05 bd d3 0d 41 bd
       -0.0806855 -0.06775258 -0.032542303 -0.047132324
0000d0 1e cb 9a bd 4f e6 83 3d 39 07 0c 3d 8f 67 bc bc
       -0.07558273 0.06440412 0.034186576 -0.0229986
0000e0 55 ac e2 3b 4a 66 48 bd 20 9e 66 bd 1f 53 12 3d
       0.0069175162 -0.048925675 -0.056303144 0.0357238
0000f0 f7 42 2d bd 9a 0c 82 3d 63 f6 6e bd 13 93 70 bd
       -0.04230019 0.0635006 -0.05834044 -0.05873401
000100 89 67 44 bc f4 a9 a6 3d af 4d 44 3d f3 3b bd 3c
       -0.011987575 0.08137885 0.047925647 0.023099875
000110 6c bd 7e bb c8 be 0d bc 99 5c 9c 3d 2d 59 02 3d
       -0.0038870228 -0.008651443 0.07634849 0.031823326
000120 3c 57 86 bd 7a 5d 60 bc 21 fc 7e 3c 30 a9 a5 3d
       -0.065596074 -0.013694162 0.015563042 0.080889106
000130 33 b7 a5 bd 14 8a ea bc 86 29 03 bd fb 59 8b 3d
       -0.08091583 -0.028630294 -0.03202202 0.06804272
000140 93 14 96 3d dd db 86 bd 72 24 2c 3c 75 03 11 bd
       0.07328143 -0.06584904 0.010506736 -0.035403688
000150 33 c6 9b 3d 93 79 42 3d 71 ec 2f 3c bd c3 a5 3d
       0.07606163 0.047479223 0.010737524 0.08093975
000160 d4 e5 83 3d 76 25 90 bd 09 3c 2a 3d 82 a7 4d bd
       0.064403206 -0.07038395 0.04156116 -0.050208576
000170 66 df 41 bc 7f d2 67 3d 89 a7 b6 3c 57 5a 7e 3c
       -0.0118330475 0.05659723 0.022296684 0.015524468
000180 c2 87 95 3d 38 03 02 bc 5c 14 1f 3c 3c e4 a0 bd
       0.073012844 -0.007935338 0.009709444 -0.07856032
000190 c8 94 fb bc 36 85 74 bd d8 c3 b9 3c cd 93 10 3d
       -0.030710593 -0.059697352 0.022676393 0.035297204
0001a0 f0 05 f3 3c a9 32 26 39 fb 01 35 3b 1d 52 c0 bc
       0.029665917 0.00015849866 0.0027619589 -0.023476655
0001b0 1e 7b 77 bc 3d 33 95 3d 64 2c 9c bc dd c7 45 bd
       -0.015105037 0.072851636 -0.019064136 -0.048286308
0001c0 6d dc 67 3d ef e6 b9 3c a5 fb 16 3a bf 83 d6 bc
       0.0566067 0.022693126 0.0005759544 -0.026185868
0001d0 46 63 6a 3d fa c2 98 bd e1 d3 1a 3d 23 1a 0d bc
       0.05722358 -0.07459064 0.03779972 -0.0086121885
0001e0 d9 61 97 bc eb af 4e 3b c1 21 5a bc 80 11 3d 3d
       -0.018479275 0.003153796 -0.013313712 0.046159267
0001f0 fe a6 39 3d b5 8c 80 bd a0 41 8e 3b 61 ce 2c 3d
       0.04532527 -0.06276838 0.004341319 0.042189006
000200 93 60 88 bd 4b bb 58 3d 50 89 5c bd 9c 94 03 3c
       -0.06659045 0.05291299 -0.05384189 0.008031037
000210 64 88 26 3b 43 47 5a 3d 54 dd 7f bd 52 05 96 3d
       0.0025410885 0.053290617 -0.062466934 0.073252335
000220 08 57 84 bd ee fb 1f bd fc 6b 2d 3d 78 c3 47 ba
       -0.064619124 -0.03905862 0.04233931 -0.00076203747
000230 26 46 c8 bc c9 dd 6d 3d c9 93 f8 3a 70 99 15 3d
       -0.024447512 0.05807284 0.0018964942 0.036523283
000240 67 e1 15 bd 95 8f 43 bd 89 f2 8c bd df 6e 74 3c
       -0.036591914 -0.047744352 -0.068821974 0.014919012
000250 85 d7 10 bc a3 c4 2f bd ae 33 87 bc 35 a3 78 bd
       -0.008840446 -0.042912137 -0.016504135 -0.06070252
000260 87 0e 99 bd 46 26 a3 3c c5 cc 2d 3d 57 ff d9 bc
       -0.07473474 0.019915711 0.04243161 -0.026611013
000270 75 f8 84 3d f1 b6 90 bc 9f c5 5d bc d8 a3 07 3d
       0.06492702 -0.017665358 -0.013535886 0.033115238
000280 77 04 ab 3b a6 59 7b 3d 74 84 f6 3c 69 ec a1 bc
       0.005219038 0.061364792 0.030092455 -0.01976605
000290 bd 6a 81 bc 92 a0 94 bd 6f dc 97 bd b1 ee a3 3d
       -0.015797967 -0.07257189 -0.07415091 0.08004511
0002a0 0c b7 12 3d ca b4 2f bd 97 77 71 3d c8 e3 66 bd
       0.0358191 -0.042897023 0.05895194 -0.056369573
0002b0 68 a1 1d 3d eb a2 a2 bd 03 ea 21 3d 2c 23 01 3c
       0.038484007 -0.079412304 0.03952981 0.007881921
0002c0 57 d0 00 bc 58 32 76 3d bb d8 8e bd 4d 2c ff ba
       -0.007862172 0.060106605 -0.06974932 -0.0019468159
0002d0 64 5f de bc 3a b6 b4 3c 2a 69 e1 3c 33 b1 3a bd
       -0.027145095 0.022059549 0.027515966 -0.045579147
0002e0 23 7c 89 bd cd fa 3c bd e2 a6 5a bc fc 31 8f bd
       -0.0671313 -0.04613762 -0.013345452 -0.06991956
0002f0 fb 8d 82 bd ee fa 9b ba aa 26 9d bb 7b de 80 bd
       -0.06374737 -0.0011900344 -0.004795869 -0.06292435
000300 14 54 a1 3d a2 0e 38 3c 4b 5f 00 bc 53 49 56 3d
       0.07877365 0.0112339575 -0.00783522 0.05231602
000310 eb d7 22 bd bc 35 77 bd 8a 63 3e 3d f9 49 4a 3c
       -0.039756697 -0.06035398 0.046481647 0.012346738
000320 52 ad 78 3d 13 48 69 3d c5 6f ef bc 97 7d 8b bd
       0.060712166 0.0569535 -0.0292281 -0.06811064
000330 e5 94 d8 3c bc 9b 72 3d 8e 97 4d 3d 07 8e 0c bc
       0.026438186 0.05923055 0.050193362 -0.008578784
000340 b3 01 a2 3b 65 42 7a 3d e8 d9 ed bb 7a d3 2a bc
       0.00494405 0.061098475 -0.0072586425 -0.0104263965
000350 49 0b a0 3d 3f fb 04 bd ba ec 6d bc 42 01 62 3d
       0.078146525 -0.03246617 -0.014521772 0.05517698
000360 e4 40 23 3d 70 81 9c bd ed 4d a9 bc af 2c 51 3d
       0.039856806 -0.07641876 -0.02066704 0.051068004
000370 02 02 9e bd c2 3a 1f 3d 3b fc 5b 3d 20 f1 cd bc
       -0.07715227 0.038874395 0.053707343 -0.025139391
000380 ba 36 e6 ba 63 ca 65 bd 48 e5 96 3d eb 67 04 3d
       -0.0017563917 -0.056101214 0.07367951 0.032325666
000390 03 e7 3c bd 83 c0 eb bc 4a 90 63 bd 39 ae 33 3d
       -0.046118747 -0.02877832 -0.055557527 0.043867324
0003a0 03 5b df bc 37 c3 29 3d 1b 5b 56 3c 35 47 87 3d
       -0.027265077 0.041445937 0.013083245 0.066053785
0003b0 30 9d 85 bd e9 43 ca 3c 3b c8 5f bd c5 5d 19 3d
       -0.06524122 0.024690585 -0.054634314 0.03744294
0003c0 89 3c 67 3d 13 8e 6d 3d a2 04 c2 bc 9c 71 9f 3d
       0.056454215 0.05799682 -0.02368385 0.07785341
0003d0 70 c0 58 3d a6 b9 e1 bc 1f 9e 41 3d 2e 6f c0 3c
       0.052917898 -0.027554344 0.047269937 0.023490515
0003e0 ba f6 5e bd 96 2f 91 bd 61 75 4f bd 67 20 60 3d
       -0.054434516 -0.070891544 -0.05064905 0.0547184
0003f0 bb 04 69 3d 2f 63 6f 3d 3a 04 3f 3c 4d f5 fa bb
       0.056889277 0.0584442 0.011658723 -0.0076586367

conv2.bias f4 [16]
000000 4e 57 55 bd ee 83 7a bc 2d 34 8a bd 86 cc 59 bd
       -0.052085213 -0.015290244 -0.06748233 -0.053173564
000010 5b 36 4a 3d fb b6 9a bd e9 29 7a 3b 7e 67 01 3d
       0.049368244 -0.07554432 0.0038171953 0.03159284
000020 59 2a 9b 3d 48 47 62 bd 0b 4c 95 3d 62 b3 78 3d
       0.075764365 -0.05524376 0.07289895 0.060717948
000030 ae 9d 3b bc d3 2e 8c bb 82 02 91 b9 54 12 7f bd
       -0.011451168 -0.004278043 -0.00027658424 -0.06227334

fc1.weight f4 [120, 400]
000000 27 00 a4 3b 3a 15 42 bc 73 54 de 3b d0 55 9b bc
       0.005004901 -0.011845881 0.0067849695 -0.018961817
000010 d3 6a 7b bc 55 16 1c 3d fa a0 cf 3c 00 fc cc 3a
       -0.015345293 0.038107235 0.025345314 0.0015639067
000020 7d c0 08 bd d8 8d 2a bd a7 3f c5 bb 67 d0 0e bb
       -0.033386696 -0.04163918 -0.006019551 -0.0021791698
000030 25 df 2a 3d 60 3d 7b 3c e7 5b d9 bb ed 20 00 bd
       0.041716713 0.015334457 -0.00663327 -0.0312814
000040 7f 1a 17 3d 90 d0 fe bc 2d c1 9f 3c e8 86 18 bd
       0.036890503 -0.03110531 0.019501293 -0.03723803
000050 1a d7 20 bd 07 10 2d 3c f3 c9 48 3d 80 0e 37 bc
       -0.039267637 0.010562903 0.04902072 -0.011172891
000060 83 48 3a 3d 5a eb ff bb d7 eb 32 bd 00 47 f0 3b
       0.04547931 -0.0078100385 -0.043681946 0.0073326826
000070 27 81 ed bc bb 1e 40 bd d7 e2 9b 3c b3 78 28 3c
       -0.028992249 -0.046904307 0.019029064 0.010282683
000080 ca 7f df 3c 33 c3 8e b9 20 3f 95 bc 5a 4d 17 bc
       0.027282614 -0.00027229785 -0.018218577 -0.009234751
000090 9a 68 7b bb f3 a7 4d bc c5 bc 06 bd 97 66 bf bc
       -0.0038361908 -0.012552249 -0.03289487 -0.023364348
0000a0 f5 74 3f 3d 10 c7 36 bd 5f 2b 27 3d e5 ae 02 bd
       0.0467424 -0.044623435 0.040812846 -0.031905074
0000b0 b0 90 3f bd b3 ce 0a bc 28 ea 3e bd e0 68 00 bc
       -0.046768844 -0.0084721325 -0.046610028 -0.007837504
0000c0 c7 7c 09 3c 33 16 41 bb fd d0 ea bc fd 9c a6 bc
       0.008391566 -0.0029462695 -0.028664107 -0.02033853
0000d0 ed e2 8a 3c 13 89 3e 3d 57 10 c3 bc ed 5c 6d bc
       0.01695391 0.046517443 -0.023811502 -0.014487487
0000e0 13 5e 3e bc fa 9c 11 bd 13 88 78 3c 27 b9 c5 3c
       -0.011619109 -0.035550095 0.015169161 0.02413614
0000f0 67 ce 96 39 f5 10 02 bd 33 e3 8f b8 cd bc 2f 3d
       0.0002876401 -0.031754453 -6.8610905e-05 0.042904664
000100 d7 a2 01 3d 47 6a 73 3c cd 45 ea 3b 08 d5 36 3d
       0.031649437 0.014856881 0.007149434 0.044636756
000110 93 53 43 3d 42 21 14 3d 3a 90 29 3c ca 9e 3a bd
       0.047687124 0.03616453 0.010349328 -0.04556159
000120 73 f2 9d bb 9f 59 07 3d c7 fe 44 3c 0d 8a 03 3d
       -0.004820162 0.033044454 0.012023634 0.032114077
000130 d7 a0 01 3d 4d fb 4c bb 08 e0 45 bd cd e2 5b 3b
       0.03164753 -0.0031277717 -0.048309356 0.0033551932
000140 e3 3a 24 bd 02 db 0a 3d 3a f6 29 bc f3 ba 17 3d
       -0.04009522 0.03390027 -0.010373646 0.037043523
000150 67 30 fb 3c 73 08 15 bd 68 f4 26 3d 4d c3 17 bb
       0.030662728 -0.03638501 0.040760428 -0.002315718
000160 40 90 86 3c f3 fc ff bb 67 7b 68 3b b3 f7 19 bc
       0.016426206 -0.0078121363 0.0035473944 -0.009397435
000170 07 ff 26 3d 43 f4 3d 3d 3a ad 39 3d 58 0a 12 3d
       0.040770557 0.046375524 0.045331217 0.035654396
000180 ad 72 00 bd 8a a1 31 3d 6d 17 ae 3c da c6 bb 3c
       -0.031359363 0.043366946 0.021251405 0.022921968
000190 1a db 43 bd 7f 09 0f bd fb e0 0a bd 40 9b c0 bc
       -0.047816373 -0.034921166 -0.033905964 -0.023511529
0001a0 c0 c1 ba 3c 40 7c 86 3c 40 4c c5 3c 80 6c ae 3b
       0.022797465 0.016416669 0.02408421 0.005322993
0001b0 1a 3d fc bc 22 73 19 bd 8b 34 1c 3d e7 17 8d 3c
       -0.030790854 -0.037463315 0.038136046 0.017223312
0001c0 67 75 40 bc 93 2d 64 bc 2f 4c 1f bd 0a 29 d7 bc
       -0.011746741 -0.013926881 -0.038891014 -0.026264686
0001d0 9a d4 14 bb ef b3 2b 3d a2 2a 1d 3d 0d 03 9f bb
       -0.0022709728 0.041919645 0.038370736 -0.0048526586
0001e0 98 d0 11 3d 43 5f fc bc 2a 19 30 3d aa 56 9d bc
       0.03559932 -0.030807143 0.04299275 -0.019206364
0001f0 15 2a 3a 3d d3 87 9d 3c 0d 14 3c 3d 6d 92 7a bc
       0.04545029 0.019229805 0.04591756 -0.0152937
000200 f5 f7 43 3d 05 5a 28 bd e3 d9 45 3d cd c5 36 3d
       0.047843892 -0.041101474 0.048303496 0.04462223
000210 4d 38 63 bb 67 bc e9 bb 0d e1 24 bc 5d ff 22 bd
       -0.003467101 -0.007133055 -0.010063422 -0.039794315
000220 d0 a1 9a 3c 22 b7 1c 3d 17 94 94 3c 00 4c 0a bd
       0.018875986 0.038260587 0.018137021 -0.033763885
000230 7d 27 cc bc 40 61 86 bb bf 88 1f 3d 43 6e 01 bd
       -0.024921173 -0.0041009486 0.03894877 -0.031599294
000240 db 74 21 bd 33 3e 43 bd df 9f 4c 3d 00 0d 22 bc
       -0.039418083 -0.04766674 0.049957152 -0.009890795
000250 8a 17 38 bd ed 51 d0 3c 93 bf 0c 3c 85 95 25 bd
       -0.044944324 0.02542969 0.008590597 -0.040425796
000260 8b 9d 2b bd 9a de 25 bd 80 fe 37 bb 87 3e e6 bc
       -0.04189829 -0.040495493 -0.0028075278 -0.028105987
000270 1a 3f 46 3c 1d 5c 16 bd 6d 17 f7 3c 47 c2 3a 3d
       0.0121000055 -0.03670894 0.030162537 0.045595434
000280 8d e4 31 bd 33 4d 6c bc 00 a3 8e bb 88 21 0a 3d
       -0.043430854 -0.014422703 -0.004352927 0.033723384
000290 f0 4c 3d bd c7 f3 82 3c 00 8f 54 3c 73 7c 65 bc
       -0.04621595 0.015985383 0.012973547 -0.014006722
0002a0 20 16 1a 3c 3d 91 19 3d 75 f5 34 3d e3 d8 f5 3c
       0.009404689 0.037492026 0.0441794 0.030010646
0002b0 65 0f 15 3d 22 5a 41 bd 25 77 2a 3d a0 31 7f bc
       0.036391634 -0.047205098 0.04161753 -0.015575796
0002c0 1a d6 5e 3b 47 42 3a 3d 93 fe 81 3c 23 73 89 3c
       0.0034002126 0.045473363 0.01586846 0.016778534
0002d0 9a 46 ad ba 13 1b 2f bc 90 d1 f2 3c 00 2c 40 bc
       -0.0013219893 -0.010687607 0.029640943 -0.01172924
0002e0 00 7f b6 ba 57 8f d6 bc 6d 0f fb bc 9a 8c 86 bc
       -0.0013923347 -0.026191397 -0.030647004 -0.016424466
0002f0 30 8d fd 3c ca f4 31 3d 03 e8 36 3d 7a 7f 10 bc
       0.030951113 0.04344634 0.044654857 -0.008819455
000300 57 36 e0 3c 93 b3 86 bc 67 10 be 3c ad 15 2b 3c
       0.027369661 -0.01644305 0.02320118 0.01044218
000310 9b 5d 37 3d 13 83 46 3d 2d b9 a2 bc 33 79 4a ba
       0.044767004 0.048464846 -0.01986369 -0.00077237486
000320 02 21 33 bd c0 31 96 bc da 51 05 bc 4d e0 31 3c
       -0.04373265 -0.01833427 -0.008137191 0.0108567
000330 80 e8 bd 3c e5 5f 46 bd 15 cd 3d bd 23 25 f5 3c
       0.023182154 -0.048431296 -0.04633816 0.029924935
000340 1a e0 2b 3c 80 9b 38 3b cd 7d 89 ba 67 0a bc bc
       0.010490442 0.0028168857 -0.0010489762 -0.022954179
000350 70 31 ad bc 8d 9e 68 bc 62 7d 00 3d 6f 51 1c bd
       -0.021141738 -0.014197958 0.031369574 -0.0381636
000360 a7 40 84 3c 50 eb 94 3c cf 0e 2c 3d 97 17 1c bd
       0.01614411 0.018178612 0.04200631 -0.038108435
000370 2b 46 0b 3d 37 51 90 bc 87 78 91 bc 7a d5 27 bd
       0.034002464 -0.017616851 -0.017757667 -0.04097507
000380 77 1c b7 3c e7 7d b1 bc ba 63 0c bc fa c3 21 3c
       0.02235244 -0.02166648 -0.008568699 0.009873385
000390 37 88 b1 bc f3 1d 83 3c 40 cd d2 3c 57 25 e7 3c
       -0.021671398 0.016005492 0.025732636 0.028216047
0003a0 e7 2c 56 bb 20 d4 49 bd 9b 75 4a bd 4a a7 e9 bc
       -0.0032680572 -0.049274564 -0.049428564 -0.028522152
0003b0 80 cf 71 3b 40 e2 a7 3c c7 35 71 bc b0 43 49 bd
       0.0036897361 0.020493627 -0.014722294 -0.049136817
0003c0 62 d4 30 3d 3d 67 ca bc 5b 71 34 bd 27 73 07 3d
       0.043171294 -0.024707431 -0.044053417 0.033068802
0003d0 87 53 71 bc c7 2a 92 bc e0 06 29 bd d7 53 42 bd
       -0.014729387 -0.017842663 -0.041266322 -0.047443237
0003e0 3d dd 29 3d 07 ca 6b bc 10 a8 e7 3c 00 5e 90 bc
       0.041470755 -0.014391429 0.02827838 -0.017622948
0003f0 0d 9b 3f 3c ad 0e 47 3c 33 d3 3c bb 63 97 ba 3c
       0.011694682 0.012149495 -0.0028812408 0.022777265

fc1.bias f4 [120]
000000 33 86 89 bc f0 8a f1 bc 17 e3 9b 3c 4a fd 09 3d
       -0.016787624 -0.029485196 0.019029183 0.03368882
000010 4d 47 50 3c 13 3a 5f bc a5 98 2d 3d 7d b1 dc bc
       0.012712312 -0.013624686 0.0423819 -0.026940102
000020 58 48 24 3d c0 bd 4c bc 3d 7d e1 3c 7a 53 9f bc
       0.040108055 -0.012496412 0.027525539 -0.019448984
000030 cd d9 5e bc a7 47 db 3b 47 aa 1a 3c cd 06 0a bd
       -0.013601732 0.0066918912 0.009440011 -0.033697892
000040 af 49 2c 3d 5d bc 89 3c 73 85 42 bc 87 d6 95 bc
       0.042062458 0.016813451 -0.011872637 -0.018290771
000050 c3 9d a5 bc b3 3a 98 3b a5 29 06 3d 1a bc 3d bd
       -0.020216828 0.0046456694 0.03275456 -0.046321966
000060 80 ce 0c 3b c0 64 d3 3b a7 1e fe bc 80 b4 25 3b
       0.0021485388 0.0064512193 -0.031020476 0.0025284588
000070 33 8a 96 bc da 7b 08 3d 9a 40 cb bb 55 f4 03 3d
       -0.018376445 0.03332124 -0.0062027695 0.032215435
000080 13 1d 8d bc 27 79 c5 bb 0d b3 c0 3c 8a cc ab bc
       -0.017225778 -0.0060264054 0.023522878 -0.020971555
000090 42 36 45 bd 80 77 fb bc a5 12 23 bd f7 4f 91 bc
       -0.048147447 -0.03069663 -0.039812703 -0.017738326
0000a0 13 e9 72 3c 5d b6 b8 3c 73 23 22 bc ab 82 2f 3d
       0.014826077 0.022547895 -0.009896147 0.042849224
0000b0 03 2a b4 3c 9a de de 3c e0 38 c7 3c 1a e9 4d bc
       0.021992689 0.027205754 0.024319112 -0.012567783
0000c0 1f 20 14 bd d8 a9 1f 3d 5f 0b 3e 3d 33 45 55 3b
       -0.036163446 0.038980335 0.046397563 0.0032542467
0000d0 3a 47 2d 3c 80 4f 4b 3d 20 c1 0c 3c d3 e0 42 bc
       0.010576064 0.049636364 0.008590966 -0.011894423
0000e0 0d 40 76 bc 00 c1 9a 3a 7f 81 1b bd 82 04 21 3d
       -0.015029919 0.0011806786 -0.037965294 0.03931094
0000f0 e7 4b 7b 3c f8 a0 1d bd 0d 46 af bc 48 c7 0b bd
       0.015337921 -0.03848359 -0.021395708 -0.034125596
000100 9a cd e7 bb cb d7 37 3d fa 5a d8 bc b3 dc b7 bc
       -0.00707407 0.04488353 -0.026410569 -0.022444105
000110 00 f8 9a 39 bd 8f 33 bd f0 51 28 3d 0d e1 1d bd
       0.00029557943 -0.04383825 0.041093767 -0.038544703
000120 f3 8f 95 bb 27 c5 3a 3d 80 17 af bc 30 89 e5 bc
       -0.004564279 0.045598175 -0.02137351 -0.028019518
000130 5a b0 3c 3d a0 1b c0 3c ea 68 2e 3d 40 4b 84 3c
       0.04606662 0.023450673 0.042580523 0.016149163
000140 6d aa 28 bd e2 d0 4b bd 33 f5 5f bc 93 04 e8 bc
       -0.041178156 -0.049759753 -0.0136693 -0.028322494
000150 a8 cd 3b bd 4d ef 5f 3b 1a 0a 93 3c d5 88 47 bd
       -0.045850426 0.0034169734 0.017949153 -0.048714478
000160 da be 83 3b 0a f6 fd bc 00 60 fb 3b 73 74 8a 3b
       0.004020554 -0.03100111 0.007671356 0.0042253076
000170 57 a3 3d 3d f5 cf 1a 3d 47 ea 0b bd b0 6f a6 bc
       0.04629835 0.03779598 -0.03415897 -0.020316929
000180 37 22 08 bd d7 39 8d bc 47 8b 42 bd fa a1 fe 3c
       -0.033235755 -0.017239494 -0.047496106 0.031083096
000190 e7 1f 00 bb c7 42 05 bd 33 f3 ab b7 e0 4a b6 3c
       -0.0019550265 -0.032534387 -2.0498037e-05 0.0222525
0001a0 65 52 39 bd 62 89 0e 3d ea 0b e0 3c f7 b3 c1 3c
       -0.045244593 0.034798987 0.027349431 0.023645384
0001b0 ad 9b 83 bc 2a 6b fa bc f3 33 3a bc 5a 43 55 bc
       -0.016065443 -0.030568678 -0.011364925 -0.013016546
0001c0 70 b8 1d 3d 02 47 1d bd c0 95 93 bc cd 7e a9 3b
       0.03850597 -0.038397796 -0.018015742 0.0051725865
0001d0 37 f6 cc bc 1a 61 33 3d ed 6e 02 3d 80 d3 77 bc
       -0.025019748 0.043793775 0.03184407 -0.015126109

fc2.weight f4 [84, 120]
000000 fa b1 42 bc 16 19 df 3c a6 11 9d 3d 37 d7 67 3b
       -0.011883253 0.027233642 0.07669382 0.003537608
000010 44 42 2e bc 05 71 79 bd 41 d7 9e 3d d7 82 27 bd
       -0.010635916 -0.0608988 0.077559 -0.040896263
000020 37 00 ae bd 97 c6 24 3d 4e 92 59 bd 0c 86 15 3d
       -0.08496135 0.040228453 -0.053118043 0.03650479
000030 c3 f0 03 3d dc fc af 3d be 44 9c 3d f2 04 9d 3d
       0.03221203 0.08593151 0.07630299 0.07666959
000040 45 09 15 3d 2c 7c b0 3d a2 ee a1 bc 1f 6e 79 3d
       0.036385793 0.08617434 -0.01976711 0.060896035
000050 ef 9c 73 bd 87 65 6e 3d df 70 7c 3b 7e c8 a7 3b
       -0.059475835 0.058202293 0.0038519425 0.005120336
000060 74 c8 68 3d 93 46 b1 bd a3 6c 86 bd 2f 2f d3 3c
       0.056831792 -0.08656039 -0.065636896 0.025779335
000070 7c 54 6f bd a1 b3 4c bd bc a7 2f bd f8 fd fd ba
       -0.05843018 -0.049975995 -0.042884573 -0.0019378057
000080 12 88 16 bd 97 7d 8c bd 52 f3 44 bc d2 fc ed bc
       -0.03675086 -0.06859892 -0.012020903 -0.029051218
000090 fe 7e b8 bd a6 86 49 3d 6f 9a ab bd 4e 8e 5a 3d
       -0.09008597 0.049200676 -0.08379065 0.05335837
0000a0 27 28 ba 3b 57 79 0c 3d d5 df 9a 3c 0d a8 e9 bc
       0.005681056 0.034295406 0.01890556 -0.028522516
0000b0 ca a7 55 3d 3e e0 eb bc 75 33 3c bc 1e cc 86 3d
       0.05216197 -0.02879345 -0.011486878 0.06581901
0000c0 c6 fe 23 3d c0 00 aa bd 1c f3 bf 3a 30 23 c4 bc
       0.040037893 -0.08300924 0.0014644596 -0.02394256
0000d0 37 43 52 bd 73 6b 1c bb b0 85 4c 3d 81 9a 9f 3c
       -0.051333632 -0.0023867756 0.04993218 0.019482853
0000e0 0b 82 1c 3c 9f 58 7c 3d aa 7d 48 3c 2b 0d 30 bb
       0.009552489 0.061607953 0.012236992 -0.0026863317
0000f0 ea 6b 62 3d 31 79 67 3d 5b d1 22 3d 2a b9 b6 3d
       0.055278696 0.05651206 0.03975044 0.08922036
000100 81 c8 6d bd da 0c 95 3d d4 a9 0a bd b3 19 bb bb
       -0.058052544 0.07277842 -0.033853367 -0.0057098507
000110 ca 4c 20 3c 07 d0 40 3a cc 65 09 3d 0a 62 a8 3b
       0.009783933 0.0007355217 0.033544347 0.0051386403
000120 eb 01 a6 bd 24 9b 09 bd 98 9b b4 bd f5 03 b1 bd
       -0.081058346 -0.03359522 -0.0881874 -0.08643333
000130 5d 52 62 bd 19 6e 01 3d 3c 1b 7d 3d 36 b1 91 bd
       -0.05525433 0.031599138 0.06179355 -0.071138784
000140 52 bc 5d bb 83 0c a0 3d 2f a0 4f 3d 18 84 34 bd
       -0.0033834171 0.078148864 0.050689872 -0.044071287
000150 7c 50 7f 3d 05 7e 25 bd 7d 45 95 bd 20 2d 96 bd
       0.062332615 -0.040403385 -0.072886445 -0.07332826
000160 a3 b2 30 3d a4 47 2a 3c b6 d8 9d 3d eb 48 0e bc
       0.04313911 0.010393057 0.0770735 -0.008684377
000170 c9 19 1a bd f5 65 1f 3d 70 71 b6 3d e7 9f a6 3c
       -0.037622247 0.038915593 0.08908355 0.02033992
000180 03 15 5f 3d ee 84 b0 bd d6 19 62 bd 50 fc 44 bc
       0.054463398 -0.08619104 -0.05520042 -0.012023047
000190 41 23 b7 bd 92 d9 34 bc 52 b7 63 bd f7 e6 48 bb
       -0.08942271 -0.011038201 -0.05559475 -0.0030655244
0001a0 f7 b4 3e 3d 15 7e 7f bd c0 da 8e bd 2e 9b 91 3d
       0.0465593 -0.0623761 -0.06975317 0.07109676
0001b0 1e 87 8c bd 72 a1 38 3c 7b 20 63 bd 6a 3d c6 bb
       -0.06861709 0.01126896 -0.055450898 -0.0060498016
0001c0 45 14 39 bd d6 90 02 3d 1b 33 1e 3c af a2 37 bd
       -0.045185346 0.031876408 0.009655739 -0.04483288
0001d0 ed 2f 81 3d 96 d7 77 3d 8f 8f 73 3d 10 11 3f bd
       0.06307969 0.060508333 0.05946308 -0.04664713
0001e0 ee f5 38 bd b8 11 4c 3d 29 62 66 bd 03 26 83 3d
       -0.04515641 0.049821585 -0.056245957 0.064037345
0001f0 f1 e7 ce bc db 5b 9a bc 81 70 84 3d 08 53 27 bd
       -0.025257083 -0.018842628 0.06466771 -0.04085067
000200 1b 62 9a bc 23 5e a0 bd 99 cc 88 3d e8 ed b7 3d
       -0.018845608 -0.07830455 0.06679649 0.08980924
000210 4b 67 83 3d dc 54 ac 3d ad 67 ad bd 06 13 2a bd
       0.06416186 0.08414623 -0.0846704 -0.04152205
000220 25 67 51 bd d7 3b 70 bc f0 4e 2c bd f8 97 8c 3c
       -0.051123757 -0.014662704 -0.04206747 0.017162308
000230 94 b5 56 bd 21 83 8f 3d 7b 39 9b 3d df 32 38 bd
       -0.05241926 0.07007433 0.07579323 -0.04497039
000240 fd 8b 09 bd b2 91 54 3c 8a ef a3 3d 50 dc 4a 3d
       -0.03358077 0.01297419 0.08004673 0.049526513
000250 0f ea 13 bd 4e cc ae 3d d1 22 26 3d 1a 20 63 3d
       -0.036111888 0.08535062 0.040560547 0.055450536
000260 80 47 09 bd ee 27 d8 bc 27 6d b4 3d 05 df b9 3d
       -0.033515453 -0.026386227 0.08809882 0.09075741
000270 a6 00 a8 3d 4c 23 92 bc 20 79 6f bd 12 a6 85 3d
       0.08203249 -0.017839096 -0.058465123 0.06525816
000280 f2 db a9 bc 48 af 2c 3c a5 75 a0 3d ac 18 e2 3b
       -0.02073476 0.010539837 0.07834939 0.006899914
000290 2e ee b4 bd 12 2a 6c bd b2 ea 4b bd db 88 59 3d
       -0.08834492 -0.05765731 -0.04978437 0.05310903
0002a0 df 75 b3 3b 30 f7 32 bd 59 90 b5 3d 04 c4 f6 3c
       0.005476698 -0.043692768 0.08865423 0.030122764
0002b0 a3 64 a0 bd d6 e3 b7 bd 82 f4 ad 3d d8 a9 8c 3d
       -0.07831695 -0.08979003 0.08493902 0.068683326
0002c0 58 1c 3e 3d 92 31 9b bd 83 f6 70 bd 24 c4 3a 3d
       0.04641375 -0.07577814 -0.058828842 0.04559721
0002d0 f1 db 21 bd 86 2c 76 bd 10 5b 63 3d 29 1d a7 3d
       -0.039516393 -0.060101055 0.055506766 0.08159859
0002e0 04 4b 26 3d 05 7b 48 bc b5 3b 99 3d 43 ce 02 bd
       0.040598884 -0.012236361 0.07482091 -0.031934988
0002f0 58 de a8 3d af b8 76 3d 86 2e af bd 5d 55 4c bd
       0.08245534 0.06023472 -0.085537955 -0.049886096
000300 36 c3 52 bd 64 ec ae bd 99 93 05 3b 95 06 ec 3c
       -0.0514557 -0.08541182 0.0020382165 0.028811732
000310 dc 1c c2 bc 50 95 a3 3d 74 4f 76 3d ff 42 b8 bd
       -0.023695402 0.079874635 0.060134366 -0.089971535
000320 1d c8 45 bc c3 93 9c 3d 77 8f 8a 3d db 77 9d 3c
       -0.0120716365 0.07645371 0.06765645 0.01922219
000330 99 b4 c8 bc 2a 04 14 3d f5 f6 5f 3d 0b e2 a4 bd
       -0.024500178 0.036136784 0.054678876 -0.08050927
000340 ef 43 87 bc 7b cd 5c 3d 68 7f ff 3c 78 87 9e 3d
       -0.016511885 0.0539069 0.031188682 0.07740682
000350 73 19 80 3d 36 65 17 3b 4d 56 1b 3d ac 4e 2b bd
       0.06254854 0.0023101098 0.0379241 -0.041823074
000360 03 70 96 bd bf c2 a1 ba e8 f0 a2 3c 0b 7b 82 3d
       -0.07345583 -0.0012341364 0.019890264 0.06371125
000370 84 f9 97 bd a3 fd a8 3d d1 92 a0 bd 20 cc 7d 3b
       -0.07420638 0.08251502 -0.07840503 0.0038726404
000380 d2 95 4b 3d 88 50 a0 3d 2c e4 73 3d 0a 32 62 bd
       0.049703427 0.0782786 0.059543774 -0.055223502
000390 33 fe 61 3d 10 e2 e9 bc 9c cd ad 3d a6 f3 12 bd
       0.055174064 -0.028550178 0.084864825 -0.035876893
0003a0 7a 6b ec 3c 29 e1 1b bd cb 39 3a 3d 78 44 d4 3b
       0.028859843 -0.038056526 0.045465272 0.0064778887
0003b0 a0 cf 8c bd 1f 10 ec 3c 27 30 7a 3d 3a d2 93 3d
       -0.06875539 0.02881628 0.061081078 0.07217832
0003c0 7e 46 9c bd 34 d1 01 3c 66 8b 0e 3d df 45 2a 3d
       -0.07630633 0.007923413 0.03480091 0.04157054
0003d0 5c c1 18 3d a6 f3 ce bc d0 69 10 3b 0e c7 90 3d
       0.037293777 -0.025262665 0.0022035725 0.07069217
0003e0 61 fb 4c bd 34 5f 9e 3d c0 d7 6e bd 04 72 65 3d
       -0.05004442 0.07733002 -0.058311224 0.056016937
0003f0 57 12 af 3d 03 63 26 3d 0a e4 31 bd 3d 08 99 bd
       0.0854842 0.04062177 -0.043430366 -0.074722745

fc2.bias f4 [84]
000000 cb 6b 82 3d 50 e9 b5 3d 39 01 b4 3d 0d 0d 6b bd
       0.06368216 0.088823915 0.08789296 -0.057385493
000010 7e c5 58 3d 46 13 8a bd 65 b7 65 3d e4 3b 19 3b
       0.05292272 -0.06741957 0.0560831 0.0023381645
000020 f0 2f b4 3d 91 2f f2 3c f2 fa 61 bd a4 ba 07 bd
       0.08798206 0.029563697 -0.05517096 -0.03313698
000030 f1 65 68 3c 72 f7 37 bd ca cf 08 bd a4 62 35 bd
       0.014184461 -0.044913717 -0.033401288 -0.044283524
000040 57 45 52 bd 35 a9 ce 3c 63 8b 8a bd 49 c5 4a bd
       -0.05133566 0.025227169 -0.06764867 -0.049504552
000050 63 c0 73 3b 5f 84 35 bc 1c 4c 41 bd 3b 78 94 bd
       0.003719353 -0.011078923 -0.047191724 -0.07249495
000060 f1 29 9a bc 27 9a 26 bc c1 91 1f bd 8e e9 b8 bd
       -0.018818827 -0.010168589 -0.03895736 -0.09028922
000070 47 b3 03 3d b7 69 32 bd 00 7b 51 3d ff 85 ae 3d
       0.032153394 -0.04355785 0.051142693 0.085216515
000080 cd 14 76 bd 33 09 9c 3c ff a3 06 3b fa 2b 86 3d
       -0.06007843 0.019047355 0.0020544527 0.065513566
000090 5c ca 3b 3d 5f 86 4b bd 94 e3 ad 3d 04 d7 45 3d
       0.04584728 -0.049688693 0.08490673 0.048300758
0000a0 e7 06 a9 bd 4d 67 a3 bd 10 8a 66 bd eb 41 13 39
       -0.0825327 -0.079786874 -0.05628401 0.00014043569
0000b0 9a 6e a1 bc 32 5d ae 3a c5 f7 9d 3c 96 4c 28 3b
       -0.01970606 0.0013302921 0.019283185 0.0025680414
0000c0 5b d3 3c 3d be 16 c5 3c 11 d6 9a 3d 51 fc 8e bd
       0.0461 0.024058696 0.07560361 -0.06981719
0000d0 69 9f 9f bc 48 25 a6 bd 95 61 9a 3d e7 20 8f bd
       -0.019485192 -0.081125796 0.075381435 -0.069886975
0000e0 de 13 11 bd 0a a4 48 3d dd 8d a7 3c a9 34 7d 3d
       -0.035419337 0.048984565 0.020453388 0.0618178
0000f0 01 6a cc bc 06 8e aa bd 64 85 f3 bc 3c c7 be 3b
       -0.02495289 -0.0832787 -0.029726692 0.0058220904
000100 42 e7 08 bc eb 65 fc 3c 29 93 94 3d 0f 59 76 bd
       -0.008355917 0.030810317 0.07254631 -0.060143527
000110 11 0c 87 bc 00 4c a1 3d a2 ef ce 3b cb df 9f bc
       -0.016485246 0.07875824 0.0063151876 -0.019515892
000120 66 9c 70 3d 95 e6 7f 3d 4d e2 84 bd d2 83 54 bd
       0.058742903 0.06247576 -0.06488476 -0.051883526
000130 6f 99 82 bd 26 84 7a bc 84 1f b7 bd 69 6c 41 3d
       -0.063769214 -0.015290296 -0.08941558 0.04722253
000140 ab af 79 3d 8b 8e b0 bd bc e5 7a bd 6f 43 75 3d
       0.060958546 -0.08620938 -0.061254248 0.059878763

fc3.weight f4 [10, 84]
000000 6d b6 bb bd bc ab 95 3d ad 76 2c 3d ed f0 c2 3d
       -0.09165654 0.07308146 0.042105366 0.09518609
000010 d0 c7 a3 bd ea ac d6 3d 15 3b 21 3d 9d 8b c6 bc
       -0.079970956 0.104821995 0.039362986 -0.024236495
000020 a7 43 50 3b fb 9d 9b bd 6c c2 93 3d 38 67 9c bc
       0.0031778605 -0.07598492 0.072148174 -0.019092187
000030 38 d6 88 3d 00 99 bf 3d ba 39 69 bb c5 fa b8 3d
       0.06681484 0.09355354 -0.0035587386 0.090322055
000040 e7 3c c6 3d 2b b9 dd 3d 4b fa 83 bd a8 c4 78 3c
       0.09679585 0.108263336 -0.06444224 0.015183605
000050 4f b7 ba bd d9 e5 64 3d 30 d7 d4 bd ce df d5 bd
       -0.091169946 0.055883262 -0.10392606 -0.10443078
000060 ca 30 13 3d 7b 57 bf 3d a7 35 b1 3d ed d2 cd 3d
       0.0359352 0.093428575 0.086528115 0.100499965
000070 c0 d5 53 bd c6 99 c4 3a 67 70 99 bd 88 ce f8 3b
       -0.05171752 0.0014999441 -0.07492142 0.00759298
000080 d3 c9 26 3c 44 0a 3c bd 05 18 bb bd 85 be 8f bd
       0.010179955 -0.045908228 -0.09135441 -0.070187606
000090 5f 0a e9 3b a6 06 85 3c 66 48 9e 3d a2 7b 5e bc
       0.007111832 0.016238522 0.07728653 -0.013579281
0000a0 28 0f c3 bc e9 46 54 bc 7f 07 b8 bb 2d cb 59 3d
       -0.023810938 -0.012956359 -0.005616128 0.05317228
0000b0 18 a2 d4 bd 1b 76 41 bd a7 9b c5 bc e7 13 a0 3d
       -0.103824794 -0.047231775 -0.024122072 0.07816296
0000c0 d6 77 71 3c 39 ed 42 bd b3 b7 c4 bd ad ab 4b bd
       0.014738044 -0.047589514 -0.0960535 -0.04972427
0000d0 22 79 41 bd 60 9e 8f bd 7e 72 8b 3d be 80 76 3c
       -0.047234662 -0.070126295 0.06808947 0.015045343
0000e0 f2 21 f0 3c 84 5e c2 3d a0 06 db bd 11 ac 89 3d
       0.029313061 0.09490684 -0.10694623 0.06722272
0000f0 b5 14 50 bd 3e 38 c1 bc 8a 78 bf bd 5c 85 fc bc
       -0.050800998 -0.023586389 -0.09349163 -0.03082531
000100 2a 4a f5 3c 65 32 b5 bd d4 2a d0 3c 31 c3 00 bd
       0.02994259 -0.088475026 0.025411047 -0.03143615
000110 e1 c4 28 3d 20 c1 3f bd bf a9 83 bd a9 79 c7 bd
       0.041203383 -0.046815038 -0.06428861 -0.09740002
000120 cf 9e 7c 3d e1 3c 1a 3d 62 a1 ce 3d fb 98 93 3d
       0.06167489 0.037655715 0.10089375 0.07206913
000130 88 93 bd bd 9d ee 54 bd b1 6e 37 3d 8d 6f c4 3b
       -0.09256655 -0.05198537 0.044783298 0.005994743
000140 a3 b9 ef bb aa bd 09 3d d8 7a 8b bd 0c 48 b5 3d
       -0.007315831 0.033628143 -0.0681054 0.088516325
000150 91 78 bf 3c cd 00 86 3d d9 4a 7d 3c 68 c5 f3 3b
       0.02337292 0.065431215 0.01545974 0.007439304
000160 66 0b d6 bd 11 e1 d9 3d b7 ee d1 3d 6d 3a 37 3d
       -0.10451393 0.10638631 0.10250609 0.044733454
000170 88 f0 6b 3c 9e f7 76 3c 3c a7 38 39 38 0c 49 bc
       0.014400609 0.015073685 0.00017609907 -0.01227098
000180 f8 f1 d4 3c 43 18 de bd 2c 5c 82 3d 5c 6c 55 bc
       0.025994286 -0.10844471 0.06365237 -0.013026323
000190 94 4f d8 3d c0 81 b5 3d e7 8e 70 3d 43 dd d5 3c
       0.10562053 0.088626385 0.058730032 0.026106482
0001a0 b4 08 93 3d b5 12 1f 3d b8 0a ec 3c d9 2e c4 bb
       0.07179394 0.0388362 0.028813705 -0.00598703
0001b0 97 34 aa bd b9 15 ad 3d 52 b2 46 3d 71 59 94 bb
       -0.08310812 0.08451409 0.048509903 -0.004527264
0001c0 98 f0 e8 bc 9a 72 b4 3c f1 8d e5 3c 48 63 d3 3c
       -0.028435037 0.022027303 0.028021784 0.025804177
0001d0 31 b9 1b bc e3 ca ec bc 6e 6d 7f bd f2 b0 c9 3c
       -0.009504602 -0.028905338 -0.06236022 0.024620507
0001e0 e5 50 b1 bc 94 58 ab bd a1 33 a1 3d ca b2 9d bd
       -0.021645019 -0.08366504 0.078711756 -0.07700117
0001f0 c4 c0 d2 3d 60 e9 5d 3d ac 4f d3 bc e3 ff a4 bd
       0.102906734 0.054177642 -0.025794826 -0.08056619
000200 ab 60 91 3d e2 25 30 3d ce 3a 6d bc da 1f 35 3d
       0.07098516 0.043004878 -0.014479352 0.04421983
000210 22 ef 27 3d a9 f2 84 3d 35 33 98 3d 89 b6 8d 3d
       0.04099954 0.06491596 0.07431642 0.069195814
000220 48 a7 d8 bd 27 67 b1 bc 8d 6d 77 3d 36 09 06 bd
       -0.10578781 -0.021655632 0.06040721 -0.032723628
000230 78 9c 23 bc 4c 50 4b bc 71 b1 a5 3d 55 f8 da bd
       -0.0099860355 -0.012409281 0.08090485 -0.10691897
000240 36 45 93 3d 0b 82 a4 3d 02 9b ac 3d 1d 9e bb 3d
       0.07190935 0.08032616 0.08428003 0.09161017
000250 cf 9f b7 3d 8f 50 96 bd ba 21 44 3d 8c 32 a3 3d
       0.08966028 -0.07339584 0.047883727 0.079686254
000260 6f 3f 10 bd 7b f6 a0 3d d0 b3 74 3c 1c 47 1d bc
       -0.035216745 0.078595124 0.014935449 -0.009599473
000270 05 7f 8a bd ff 19 eb 3c 67 86 98 3d ac d8 27 3d
       -0.06762508 0.02869892 0.0744751 0.04097812
000280 08 73 81 bc 00 9f 87 3d d9 2f d6 bd 33 5a b4 bd
       -0.015801921 0.06622124 -0.10458345 -0.08806267
000290 be af f5 3c 01 fc ee ba a3 79 9f bd df 41 a9 bd
       0.029991027 -0.0018233062 -0.07786872 -0.08264517
0002a0 e0 8c ac 3d 9c 5d 1f bd 3e 25 88 bd 00 01 dd 3c
       0.08425307 -0.038907632 -0.066477284 0.026978016
0002b0 60 19 35 bc 7d d0 11 bd 77 65 8d bc 71 b7 84 3d
       -0.011053413 -0.03559922 -0.017260296 0.06480301
0002c0 c1 68 79 bd 99 b1 7e 3d 05 5f dc bd a0 11 1b bd
       -0.060890917 0.06218109 -0.10760311 -0.037858605
0002d0 72 a9 2e 3d ea 16 4c bd ba 14 84 bd 4a 11 27 bc
       0.042642064 -0.04982654 -0.06449266 -0.010196993
0002e0 ec 8e 2d bd 1d 2b 25 3d 4d 5f 8d 3c 18 ff 26 bd
       -0.04237263 0.04032432 0.017257357 -0.04077062
0002f0 28 e6 2d 3d 09 e1 9d bd bb e8 6b bc ad aa d0 bd
       0.042455822 -0.07708938 -0.014398749 -0.10188804
000300 04 b1 a6 bd e4 e7 01 3d 0a 88 b4 bc d9 03 7c bd
       -0.08139232 0.03171529 -0.022037525 -0.061527107
000310 e2 a1 23 bd 91 79 ac bd ed 28 9a 3b 01 b2 bc 3d
       -0.039949305 -0.084216245 0.0047045858 0.09213639
000320 0b 2e 19 bd db 35 11 bd 99 1e bb 3d 9a 2b f0 3c
       -0.037397426 -0.03545175 0.091366954 0.029317666
000330 39 88 40 3c 26 07 ce 3d 76 b7 c2 bd 57 a4 ab 3d
       0.011751228 0.10059957 -0.09507649 0.08380955
000340 db ac c9 bd 0d e4 21 bc 92 94 b8 bd 28 15 24 bd
       -0.09847423 -0.009881032 -0.090127125 -0.04005924
000350 78 15 94 3d dc 01 35 3c ba 35 5d 3c 09 fc c2 bc
       0.07230657 0.011047807 0.013501579 -0.02380182
000360 d4 83 c1 bc f2 51 01 3d e5 7e a5 3d 36 fe bb bc
       -0.02362243 0.03157229 0.08080844 -0.022948366
000370 ce a3 24 bc c9 5d 35 bb b4 9b fb bc 01 22 43 bb
       -0.01004882 -0.0027674309 -0.030713893 -0.0029774907
000380 77 1a de 3d 4c e6 39 3d 87 f9 1e 3c c8 4e 99 bd
       0.108448915 0.045385644 0.009703047 -0.074857295
000390 ed ec 30 3d 15 5b 7b 3d 3d 3f ab 3d 64 8e 81 bc
       0.0431947 0.06136616 0.08361671 -0.015814967
0003a0 31 b5 ae bd b9 c2 8a 3d 0b a0 94 3d 0c d3 91 3d
       -0.08530653 0.06775422 0.07257088 0.07120332
0003b0 b6 a7 11 bc d6 c4 f3 3c aa cd bf bd af af 58 bd
       -0.008890083 0.029756945 -0.09365399 -0.05290192
0003c0 24 6a 77 3d 8d 8e 87 3d 3a 36 c0 3d c0 39 f2 bc
       0.060403958 0.06618986 0.09385343 -0.029568553
0003d0 ca fd b6 3d 18 e7 cf bd 19 82 d8 3d f1 92 56 bd
       0.08935125 -0.101514995 0.10571689 -0.052386228
0003e0 8d ec ab bd dd bf 1a 3d b8 97 24 3d 7d ab 91 3d
       -0.08394728 0.03778063 0.040183753 0.07112787
0003f0 a6 4a 7f 3d 01 ed de 3d 48 2c 11 3d 74 a5 32 3c
       0.06232705 0.10885049 0.03544262 0.010903705

fc3.bias f4 [10]
000000 d8 6d 49 bd 2e ee c1 bd fa 39 bb bd f4 2c dc bd
       -0.04917702 -0.09469257 -0.091419175 -0.10750762
000010 bf 9e e5 bc 5a cc ff 3b 86 e1 ca bc 0c 6a bb bd
       -0.028029798 0.007806343 -0.024765741 -0.09151086
000020 8e 5a 34 bd b6 54 78 3d
       -0.044031672 0.06062766
